…
Input imported
K imported
LSTM imported
Lambda imported
LeakyReLU imported
MaxPooling2D imported
Model imported
Permute imported
RepeatVector imported
Reshape imported
Sequential imported
TimeDistributed imported
UpSampling1D imported
UpSampling2D imported
UpSampling3D imported
attention_3d_block imported
create_LSTM imported
initializers imported
merge imported
regularizers imported
_________________________________________________________________
Layer (type)                 Output Shape              Param #   
=================================================================
input_1 (InputLayer)         (None, 1, 15, 200)        0         
_________________________________________________________________
reshape_1 (Reshape)          (None, 200, 15)           0         
_________________________________________________________________
bidirectional_1 (Bidirection (None, 200, 256)          147456    
_________________________________________________________________
batch_normalization_1 (Batch (None, 200, 256)          1024      
_________________________________________________________________
activation_1 (Activation)    (None, 200, 256)          0         
_________________________________________________________________
flatten_1 (Flatten)          (None, 51200)             0         
_________________________________________________________________
batch_normalization_2 (Batch (None, 51200)             204800    
_________________________________________________________________
dense_1 (Dense)              (None, 200)               10240200  
=================================================================
Total params: 10,593,480
Trainable params: 10,490,568
Non-trainable params: 102,912
_________________________________________________________________
None
Train on 12444 samples, validate on 1383 samples
Epoch 1/400
107s - loss: -2.5056e-03 - mean_squared_error: 0.9138 - val_loss: -2.9815e-03 - val_mean_squared_error: 0.9313
Epoch 2/400
…
