…
Input imported
K imported
LSTM imported
Lambda imported
LeakyReLU imported
MaxPooling2D imported
Model imported
Permute imported
RepeatVector imported
Reshape imported
Sequential imported
TimeDistributed imported
UpSampling1D imported
UpSampling2D imported
UpSampling3D imported
attention_3d_block imported
create_LSTM imported
initializers imported
merge imported
regularizers imported
_________________________________________________________________
Layer (type)                 Output Shape              Param #   
=================================================================
input_1 (InputLayer)         (None, 1, 10, 200)        0         
_________________________________________________________________
reshape_1 (Reshape)          (None, 200, 10)           0         
_________________________________________________________________
lstm_1 (LSTM)                (None, 200, 200)          168800    
_________________________________________________________________
batch_normalization_1 (Batch (None, 200, 200)          800       
_________________________________________________________________
activation_1 (Activation)    (None, 200, 200)          0         
_________________________________________________________________
lstm_2 (LSTM)                (None, 200)               320800    
_________________________________________________________________
batch_normalization_2 (Batch (None, 200)               800       
_________________________________________________________________
activation_2 (Activation)    (None, 200)               0         
=================================================================
Total params: 491,200
Trainable params: 490,400
Non-trainable params: 800
_________________________________________________________________
None
Train on 12448 samples, validate on 1384 samples
Epoch 1/400
104s - loss: -2.0295e-03 - mean_squared_error: 0.4809 - val_loss: -2.0122e-03 - val_mean_squared_error: 0.0637
Epoch 2/400
…
