…
Permute imported
RepeatVector imported
Reshape imported
Sequential imported
TimeDistributed imported
UpSampling1D imported
UpSampling2D imported
UpSampling3D imported
attention_3d_block imported
create_LSTM imported
initializers imported
merge imported
regularizers imported
____________________________________________________________________________________________________
Layer (type)                     Output Shape          Param #     Connected to                     
====================================================================================================
input_1 (InputLayer)             (None, 1, 10, 200)    0                                            
____________________________________________________________________________________________________
reshape_1 (Reshape)              (None, 10, 200)       0           input_1[0][0]                    
____________________________________________________________________________________________________
lstm_1 (LSTM)                    (None, 10, 200)       320800      reshape_1[0][0]                  
____________________________________________________________________________________________________
batch_normalization_1 (BatchNorm (None, 10, 200)       800         lstm_1[0][0]                     
____________________________________________________________________________________________________
activation_1 (Activation)        (None, 10, 200)       0           batch_normalization_1[0][0]      
____________________________________________________________________________________________________
dense_1 (Dense)                  (None, 10, 200)       40200       activation_1[0][0]               
____________________________________________________________________________________________________
attention_vec (Permute)          (None, 10, 200)       0           dense_1[0][0]                    
____________________________________________________________________________________________________
attention_mul (Merge)            (None, 10, 200)       0           activation_1[0][0]               
                                                                   attention_vec[0][0]              
____________________________________________________________________________________________________
batch_normalization_2 (BatchNorm (None, 10, 200)       800         attention_mul[0][0]              
____________________________________________________________________________________________________
activation_2 (Activation)        (None, 10, 200)       0           batch_normalization_2[0][0]      
____________________________________________________________________________________________________
lstm_2 (LSTM)                    (None, 200)           320800      activation_2[0][0]               
____________________________________________________________________________________________________
batch_normalization_3 (BatchNorm (None, 200)           800         lstm_2[0][0]                     
____________________________________________________________________________________________________
activation_3 (Activation)        (None, 200)           0           batch_normalization_3[0][0]      
____________________________________________________________________________________________________
dense_2 (Dense)                  (None, 200)           40200       activation_3[0][0]               
====================================================================================================
Total params: 724,400
Trainable params: 723,200
Non-trainable params: 1,200
____________________________________________________________________________________________________
None
Train on 12448 samples, validate on 1384 samples
Epoch 1/400
15s - loss: -3.3731e-03 - mean_squared_error: 0.1916 - val_loss: -3.5511e-03 - val_mean_squared_error: 0.1457
…
