…
Input imported
K imported
LSTM imported
Lambda imported
LeakyReLU imported
MaxPooling2D imported
Model imported
Permute imported
RepeatVector imported
Reshape imported
Sequential imported
TimeDistributed imported
UpSampling1D imported
UpSampling2D imported
UpSampling3D imported
attention_3d_block imported
create_LSTM imported
initializers imported
merge imported
regularizers imported
_________________________________________________________________
Layer (type)                 Output Shape              Param #   
=================================================================
input_1 (InputLayer)         (None, 1, 15, 200)        0         
_________________________________________________________________
reshape_1 (Reshape)          (None, 200, 15)           0         
_________________________________________________________________
lstm_1 (LSTM)                (None, 200, 200)          172800    
_________________________________________________________________
batch_normalization_1 (Batch (None, 200, 200)          800       
_________________________________________________________________
activation_1 (Activation)    (None, 200, 200)          0         
_________________________________________________________________
lstm_2 (LSTM)                (None, 200)               320800    
_________________________________________________________________
batch_normalization_2 (Batch (None, 200)               800       
_________________________________________________________________
dense_1 (Dense)              (None, 256)               51456     
_________________________________________________________________
dense_2 (Dense)              (None, 200)               51400     
=================================================================
Total params: 598,056
Trainable params: 597,256
Non-trainable params: 800
_________________________________________________________________
None
Train on 12444 samples, validate on 1383 samples
Epoch 1/400
107s - loss: -2.7032e-03 - mean_squared_error: 0.5208 - val_loss: -3.0571e-03 - val_mean_squared_error: 0.7088
Epoch 2/400
…
