…
Input imported
K imported
LSTM imported
Lambda imported
LeakyReLU imported
MaxPooling2D imported
Model imported
Permute imported
RepeatVector imported
Reshape imported
Sequential imported
TimeDistributed imported
UpSampling1D imported
UpSampling2D imported
UpSampling3D imported
attention_3d_block imported
create_LSTM imported
initializers imported
merge imported
regularizers imported
_________________________________________________________________
Layer (type)                 Output Shape              Param #   
=================================================================
input_1 (InputLayer)         (None, 1, 10, 200)        0         
_________________________________________________________________
reshape_1 (Reshape)          (None, 200, 10)           0         
_________________________________________________________________
bidirectional_1 (Bidirection (None, 200, 256)          142336    
_________________________________________________________________
batch_normalization_1 (Batch (None, 200, 256)          1024      
_________________________________________________________________
activation_1 (Activation)    (None, 200, 256)          0         
_________________________________________________________________
flatten_1 (Flatten)          (None, 51200)             0         
_________________________________________________________________
batch_normalization_2 (Batch (None, 51200)             204800    
_________________________________________________________________
dense_1 (Dense)              (None, 200)               10240200  
=================================================================
Total params: 10,588,360
Trainable params: 10,485,448
Non-trainable params: 102,912
_________________________________________________________________
None
Train on 12448 samples, validate on 1384 samples
Epoch 1/400
106s - loss: -2.4709e-03 - mean_squared_error: 0.9199 - val_loss: -2.9739e-03 - val_mean_squared_error: 0.9319
Epoch 2/400
…
