…
Input imported
K imported
LSTM imported
Lambda imported
LeakyReLU imported
MaxPooling2D imported
Model imported
Permute imported
RepeatVector imported
Reshape imported
Sequential imported
TimeDistributed imported
UpSampling1D imported
UpSampling2D imported
UpSampling3D imported
attention_3d_block imported
create_LSTM imported
initializers imported
merge imported
regularizers imported
_________________________________________________________________
Layer (type)                 Output Shape              Param #   
=================================================================
input_1 (InputLayer)         (None, 200, 1, 1)         0         
_________________________________________________________________
reshape_1 (Reshape)          (None, 200, 1)            0         
_________________________________________________________________
bidirectional_1 (Bidirection (None, 200, 256)          133120    
_________________________________________________________________
batch_normalization_1 (Batch (None, 200, 256)          1024      
_________________________________________________________________
activation_1 (Activation)    (None, 200, 256)          0         
_________________________________________________________________
bidirectional_2 (Bidirection (None, 200, 256)          394240    
_________________________________________________________________
batch_normalization_2 (Batch (None, 200, 256)          1024      
_________________________________________________________________
activation_2 (Activation)    (None, 200, 256)          0         
_________________________________________________________________
flatten_1 (Flatten)          (None, 51200)             0         
_________________________________________________________________
batch_normalization_3 (Batch (None, 51200)             204800    
_________________________________________________________________
dense_1 (Dense)              (None, 200)               10240200  
=================================================================
Total params: 10,974,408
Trainable params: 10,870,984
Non-trainable params: 103,424
_________________________________________________________________
None
Epoch 1/400
213s - loss: -1.9501e-03 - mean_squared_error: 0.9492
Epoch 2/400
205s - loss: -2.7215e-03 - mean_squared_error: 0.9400
Epoch 3/400
203s - loss: -2.7406e-03 - mean_squared_error: 0.9402
…
