…
Permute imported
RepeatVector imported
Reshape imported
Sequential imported
TimeDistributed imported
UpSampling1D imported
UpSampling2D imported
UpSampling3D imported
attention_3d_block imported
create_LSTM imported
initializers imported
merge imported
regularizers imported
____________________________________________________________________________________________________
Layer (type)                     Output Shape          Param #     Connected to                     
====================================================================================================
input_1 (InputLayer)             (None, 200, 1, 1)     0                                            
____________________________________________________________________________________________________
reshape_1 (Reshape)              (None, 200, 1)        0           input_1[0][0]                    
____________________________________________________________________________________________________
lstm_1 (LSTM)                    (None, 200, 200)      161600      reshape_1[0][0]                  
____________________________________________________________________________________________________
batch_normalization_1 (BatchNorm (None, 200, 200)      800         lstm_1[0][0]                     
____________________________________________________________________________________________________
activation_1 (Activation)        (None, 200, 200)      0           batch_normalization_1[0][0]      
____________________________________________________________________________________________________
lstm_2 (LSTM)                    (None, 200, 200)      320800      activation_1[0][0]               
____________________________________________________________________________________________________
batch_normalization_2 (BatchNorm (None, 200, 200)      800         lstm_2[0][0]                     
____________________________________________________________________________________________________
activation_2 (Activation)        (None, 200, 200)      0           batch_normalization_2[0][0]      
____________________________________________________________________________________________________
permute_1 (Permute)              (None, 200, 200)      0           activation_2[0][0]               
____________________________________________________________________________________________________
dense_1 (Dense)                  (None, 200, 200)      40200       permute_1[0][0]                  
____________________________________________________________________________________________________
attention_vec (Permute)          (None, 200, 200)      0           dense_1[0][0]                    
____________________________________________________________________________________________________
attention_mul (Merge)            (None, 200, 200)      0           activation_2[0][0]               
                                                                   attention_vec[0][0]              
____________________________________________________________________________________________________
lstm_3 (LSTM)                    (None, 200)           320800      attention_mul[0][0]              
____________________________________________________________________________________________________
batch_normalization_3 (BatchNorm (None, 200)           800         lstm_3[0][0]                     
____________________________________________________________________________________________________
activation_3 (Activation)        (None, 200)           0           batch_normalization_3[0][0]      
____________________________________________________________________________________________________
dense_2 (Dense)                  (None, 256)           51456       activation_3[0][0]               
____________________________________________________________________________________________________
dense_3 (Dense)                  (None, 200)           51400       dense_2[0][0]                    
====================================================================================================
Total params: 948,656
Trainable params: 947,456
Non-trainable params: 1,200
____________________________________________________________________________________________________
None
Epoch 1/400
168s - loss: -3.4093e-03 - mean_squared_error: 31.3724
Epoch 2/400
…
