…
Input imported
K imported
LSTM imported
Lambda imported
LeakyReLU imported
MaxPooling2D imported
Model imported
Permute imported
RepeatVector imported
Reshape imported
Sequential imported
TimeDistributed imported
UpSampling1D imported
UpSampling2D imported
UpSampling3D imported
attention_3d_block imported
create_LSTM imported
initializers imported
merge imported
regularizers imported
_________________________________________________________________
Layer (type)                 Output Shape              Param #   
=================================================================
input_1 (InputLayer)         (None, 200, 1, 1)         0         
_________________________________________________________________
reshape_1 (Reshape)          (None, 200, 1)            0         
_________________________________________________________________
bidirectional_1 (Bidirection (None, 200, 256)          133120    
_________________________________________________________________
batch_normalization_1 (Batch (None, 200, 256)          1024      
_________________________________________________________________
activation_1 (Activation)    (None, 200, 256)          0         
_________________________________________________________________
flatten_1 (Flatten)          (None, 51200)             0         
_________________________________________________________________
batch_normalization_2 (Batch (None, 51200)             204800    
_________________________________________________________________
dense_1 (Dense)              (None, 200)               10240200  
=================================================================
Total params: 10,579,144
Trainable params: 10,476,232
Non-trainable params: 102,912
_________________________________________________________________
None
Epoch 1/400
109s - loss: -2.0674e-03 - mean_squared_error: 0.9470
Epoch 2/400
102s - loss: -2.7068e-03 - mean_squared_error: 0.9404
Epoch 3/400
103s - loss: -2.7242e-03 - mean_squared_error: 0.9407
…
