…
Permute imported
RepeatVector imported
Reshape imported
Sequential imported
TimeDistributed imported
UpSampling1D imported
UpSampling2D imported
UpSampling3D imported
attention_3d_block imported
create_LSTM imported
initializers imported
merge imported
regularizers imported
____________________________________________________________________________________________________
Layer (type)                     Output Shape          Param #     Connected to                     
====================================================================================================
input_1 (InputLayer)             (None, 200, 1, 1)     0                                            
____________________________________________________________________________________________________
reshape_1 (Reshape)              (None, 200, 1)        0           input_1[0][0]                    
____________________________________________________________________________________________________
bidirectional_1 (Bidirectional)  (None, 200, 256)      133120      reshape_1[0][0]                  
____________________________________________________________________________________________________
batch_normalization_1 (BatchNorm (None, 200, 256)      1024        bidirectional_1[0][0]            
____________________________________________________________________________________________________
activation_1 (Activation)        (None, 200, 256)      0           batch_normalization_1[0][0]      
____________________________________________________________________________________________________
bidirectional_2 (Bidirectional)  (None, 200, 256)      394240      activation_1[0][0]               
____________________________________________________________________________________________________
batch_normalization_2 (BatchNorm (None, 200, 256)      1024        bidirectional_2[0][0]            
____________________________________________________________________________________________________
activation_2 (Activation)        (None, 200, 256)      0           batch_normalization_2[0][0]      
____________________________________________________________________________________________________
permute_1 (Permute)              (None, 256, 200)      0           activation_2[0][0]               
____________________________________________________________________________________________________
dense_1 (Dense)                  (None, 256, 200)      40200       permute_1[0][0]                  
____________________________________________________________________________________________________
attention_vec (Permute)          (None, 200, 256)      0           dense_1[0][0]                    
____________________________________________________________________________________________________
attention_mul (Merge)            (None, 200, 256)      0           activation_2[0][0]               
                                                                   attention_vec[0][0]              
____________________________________________________________________________________________________
flatten_1 (Flatten)              (None, 51200)         0           attention_mul[0][0]              
____________________________________________________________________________________________________
batch_normalization_3 (BatchNorm (None, 51200)         204800      flatten_1[0][0]                  
____________________________________________________________________________________________________
dense_2 (Dense)                  (None, 256)           13107456    batch_normalization_3[0][0]      
____________________________________________________________________________________________________
dense_3 (Dense)                  (None, 200)           51400       dense_2[0][0]                    
====================================================================================================
Total params: 13,933,264
Trainable params: 13,829,840
Non-trainable params: 103,424
____________________________________________________________________________________________________
None
Epoch 1/400
219s - loss: -3.1011e-03 - mean_squared_error: 28.9319
Epoch 2/400
…
