…
Input imported
K imported
LSTM imported
Lambda imported
LeakyReLU imported
MaxPooling2D imported
Model imported
Permute imported
RepeatVector imported
Reshape imported
Sequential imported
TimeDistributed imported
UpSampling1D imported
UpSampling2D imported
UpSampling3D imported
attention_3d_block imported
create_LSTM imported
initializers imported
merge imported
regularizers imported
_________________________________________________________________
Layer (type)                 Output Shape              Param #   
=================================================================
input_1 (InputLayer)         (None, 200, 1, 1)         0         
_________________________________________________________________
reshape_1 (Reshape)          (None, 200, 1)            0         
_________________________________________________________________
lstm_1 (LSTM)                (None, 200, 200)          161600    
_________________________________________________________________
batch_normalization_1 (Batch (None, 200, 200)          800       
_________________________________________________________________
activation_1 (Activation)    (None, 200, 200)          0         
_________________________________________________________________
lstm_2 (LSTM)                (None, 200)               320800    
_________________________________________________________________
batch_normalization_2 (Batch (None, 200)               800       
_________________________________________________________________
activation_2 (Activation)    (None, 200)               0         
_________________________________________________________________
dense_1 (Dense)              (None, 200)               40200     
=================================================================
Total params: 524,200
Trainable params: 523,400
Non-trainable params: 800
_________________________________________________________________
None
Epoch 1/400
114s - loss: -3.2858e-03 - mean_squared_error: 0.2471
Epoch 2/400
107s - loss: -3.3857e-03 - mean_squared_error: 0.2410
Epoch 3/400
108s - loss: -3.4321e-03 - mean_squared_error: 0.1176
…
