…
Input imported
K imported
LSTM imported
Lambda imported
LeakyReLU imported
MaxPooling2D imported
Model imported
Permute imported
RepeatVector imported
Reshape imported
Sequential imported
TimeDistributed imported
UpSampling1D imported
UpSampling2D imported
UpSampling3D imported
attention_3d_block imported
create_LSTM imported
initializers imported
merge imported
regularizers imported
_________________________________________________________________
Layer (type)                 Output Shape              Param #   
=================================================================
input_1 (InputLayer)         (None, 200, 1, 1)         0         
_________________________________________________________________
reshape_1 (Reshape)          (None, 200, 1)            0         
_________________________________________________________________
lstm_1 (LSTM)                (None, 200, 200)          161600    
_________________________________________________________________
batch_normalization_1 (Batch (None, 200, 200)          800       
_________________________________________________________________
activation_1 (Activation)    (None, 200, 200)          0         
_________________________________________________________________
lstm_2 (LSTM)                (None, 200)               320800    
_________________________________________________________________
batch_normalization_2 (Batch (None, 200)               800       
_________________________________________________________________
dense_1 (Dense)              (None, 256)               51456     
_________________________________________________________________
dense_2 (Dense)              (None, 200)               51400     
=================================================================
Total params: 586,856
Trainable params: 586,056
Non-trainable params: 800
_________________________________________________________________
None
Epoch 1/400
115s - loss: -2.8593e-03 - mean_squared_error: 0.3787
Epoch 2/400
110s - loss: -3.4152e-03 - mean_squared_error: 0.2199
Epoch 3/400
110s - loss: -3.4359e-03 - mean_squared_error: 0.1684
…
